gesture_model.pth (torch, 93828 bytes, 6 tensors)

fc1.weight f4 [128, 42]
0	0x3e7481e4	0.23877674
1	0x3b84e1c2	0.0040552327
2	0xbd9eae65	-0.07748107
3	0x3d7d42fb	0.061831456
4	0xbe78db18	-0.24302328
5	0x3d2be356	0.04196485
6	0xbeed6d7c	-0.46372592
7	0x3d421191	0.047380034
8	0xbe357fb3	-0.17724495
9	0x3e556529	0.20839371
10	0xbe81ed05	-0.25376144
11	0x3e0bdd02	0.13658527
12	0x3e4072a9	0.1879374
13	0xbd24428e	-0.040102534
14	0x3ec276fd	0.37981406
15	0xbea63ed6	-0.32469815
16	0x3ef126a7	0.47099802
17	0xbed04132	-0.4067474
18	0x3d8904e6	0.066903874
19	0x3e2f137a	0.17097273
20	0x3e6adf41	0.22936727
21	0xbd122cda	-0.035687305
22	0x3de38926	0.11110143
23	0xbe17e7b6	-0.14834484
24	0x3e5f7d8b	0.21825235
25	0xbc2be3dc	-0.010491338
26	0x3e8878d5	0.26654688
27	0xbd4a9c4d	-0.049465466
28	0x3d879921	0.06621004
29	0x3dadd3d3	0.08487668
30	0xbea5069d	-0.32231608
31	0x3eaf0cbb	0.341894
32	0xbf188055	-0.5957082
33	0x3ef0a8e4	0.47003853
34	0x3e4250b5	0.189761
35	0xbe86b060	-0.26306438
36	0x3dfb365e	0.12266229
37	0xbdafc55b	-0.085825644
38	0xbe132ec6	-0.14373311
39	0xbe04f621	-0.12984516
40	0xbe6aee5f	-0.22942494
41	0xbdcb09cb	-0.09913977
42	0x3e055871	0.13022019
43	0x3e92419b	0.28565678
44	0x3f10161c	0.56283736
45	0x3e2afbd9	0.16697635
46	0x3f35425c	0.7080438
47	0x3bd2d8b4	0.0064345244
48	0x3f0e9345	0.55693465
49	0xbd0495ad	-0.032369304
50	0x3ea54be1	0.32284454
51	0xbec7c64a	-0.3901847
52	0x3e966921	0.29377082
53	0x3ead762f	0.3387923
54	0x3e0efd35	0.13963778
55	0x3e091588	0.1338712
56	0x3d75fe72	0.06005711
57	0xbda53fa7	-0.08068781
58	0xbdce03fe	-0.10059355
59	0xbe2c06ac	-0.1679942
60	0xbd37553d	-0.044759024
61	0x3e776246	0.24158582
62	0xbdd42919	-0.10359401
63	0xbd9e32c1	-0.07724524
64	0xbe9e4c70	-0.30917692
65	0xbe617f27	-0.22021161
66	0xbd99636b	-0.074896656
67	0xbe8ca1fb	-0.2746733
68	0xbeb69945	-0.3566381
69	0x3e4dad88	0.20085728
70	0xbe348b23	-0.17631201
71	0xbe4b54eb	-0.19856612
72	0x3de57045	0.11203054
73	0xbe088c67	-0.13334809
74	0x3e3d9c4c	0.18516654
75	0xbd901597	-0.07035368
76	0xbe8e42ef	-0.2778544
77	0x3d1feba6	0.03904309
78	0xbe5fd535	-0.21858676
79	0xbe18ddf3	-0.14928417
80	0xbe339bd7	-0.17539917
81	0xbe0865df	-0.1332011
82	0x3d42fb66	0.047603033
83	0x3e47e494	0.1952079
84	0x3dc9f518	0.09861201
85	0xbe5cd2e5	-0.21564825
86	0x3d9e209b	0.07721063
87	0xbec70c7c	-0.38876712
88	0xbe36daa1	-0.17856838
89	0xbeaaf5bd	-0.33390608
90	0xbe0ee818	-0.13955724
91	0x3d2d0064	0.0422367
92	0xbd3f9d0c	-0.04678063
93	0x3e4aca8d	0.1980383
94	0xbe75c0fe	-0.23999402
95	0xbe3bbc17	-0.1833347
96	0xbe320fa0	-0.17388773
97	0xbe160847	-0.14651595
98	0x3e29f078	0.16595638
99	0x3e798739	0.2436799
100	0x3e2ad4c2	0.16682723
101	0x3e5292ec	0.20563859
102	0xbe200ca7	-0.15629826
103	0x3df8cd60	0.12148547
104	0x3d421212	0.047380514
105	0x3e52c6a5	0.2058359
106	0xbb6808b9	-0.003540559
107	0xbdc7ffb5	-0.09765569
108	0x3d923f3b	0.071409665
109	0x3d2d34d7	0.04228672
110	0x3de5cb09	0.112203665
111	0x3edcfb8b	0.43160662
112	0x3c70aa56	0.014689049
113	0x3dd348ad	0.10316596
114	0xbdb618a7	-0.08891421
115	0xbe455989	-0.19272436
116	0xbe9a7548	-0.30167603
117	0xbe8ddabb	-0.2770594
118	0x3ea8b9ce	0.32954258
119	0x3ed9eda8	0.4256413
120	0x3e3ceb6c	0.18449181
121	0x3e8467f6	0.25860566
122	0x3e4df280	0.20112038
123	0xbe7a65a4	-0.24452835
124	0xbe311a92	-0.17295292
125	0xbedbcb83	-0.42928705
126	0xbe8739b0	-0.264112
127	0x3d911f9c	0.07086107
128	0xbe73f8e4	-0.23825413
129	0x3df87486	0.121316
130	0xbe999929	-0.29999664
131	0x3e84e333	0.2595459
132	0xbcf9c589	-0.0304897
133	0x3e51c4c4	0.20485216
134	0x3e546adf	0.20743893
135	0x3e921034	0.28527987
136	0xbdbbffd0	-0.09179652
137	0x3e437850	0.19088864
138	0x3c58a6e0	0.01322338
139	0xbeae2ccc	-0.34018552
140	0x3e3fd3c7	0.1873313
141	0xbeb79d02	-0.35861975
142	0x3f34dcb6	0.7064928
143	0xbf14a272	-0.5806037
144	0x3da7034a	0.08154924
145	0xbc82721d	-0.015923554
146	0xbdcfebed	-0.10152421
147	0xbc841c35	-0.016126731
148	0x3d0598c0	0.032616377
149	0xbe3a051a	-0.18166009
150	0x3ebba689	0.36650494
151	0xbe08cdfc	-0.13359827
152	0xbde00165	-0.10937766
153	0xbdd3d355	-0.10343043
154	0xbe1fbd11	-0.15599467
155	0x3dee0f62	0.11624028
156	0xbe15abf6	-0.14616379
157	0x3eadcc46	0.3394491
158	0xbd61c1e0	-0.055116534
159	0x3ecb986a	0.3976472
160	0xbbc5be3d	-0.006034641
161	0xbe169ba3	-0.14707808
162	0x3c46f165	0.012142514
163	0xbd25aaf0	-0.04044622
164	0xbc867de7	-0.016417457
165	0xbd4b719c	-0.049668893
166	0xbe205aa9	-0.15659584
167	0x3d41380f	0.047172602
168	0xbe73ac50	-0.23796201
169	0x3ea10630	0.31450033
170	0xbdb37d1d	-0.08764098
171	0xbda28bf8	-0.07936853
172	0x3e83078b	0.25591692
173	0xbdb2e8db	-0.0873582
174	0x3e8ce0e5	0.2751533
175	0xbea430b0	-0.32068396
176	0x3d6cd3e8	0.057819277
177	0xbde00267	-0.10937958
178	0x3e5e0b43	0.21683984
179	0xbeb1c59f	-0.34721085
180	0xbcdeff4a	-0.02722134
181	0x39e7a61f	0.00044183523
182	0x3cdfc7e7	0.027317
183	0x3d1f4e3b	0.038892966
184	0xbe7cceae	-0.24688217
185	0x3d96e926	0.07368688
186	0x3e580d08	0.21098721
187	0xbe219bc2	-0.15782073
188	0x3d3b0caf	0.045666393
189	0xbd5cc76d	-0.053901125
190	0x3df98cc4	0.12185052
191	0xbdeb5ccb	-0.11492308
192	0xbdfd021e	-0.123539194
193	0x3de4f81e	0.11180137
194	0xbd828562	-0.06373097
195	0x3c8a8d83	0.016913181
196	0xbd13be45	-0.036070127
197	0x3d9af8fe	0.07567023
198	0x3e681b9f	0.22666787
199	0x3e384afb	0.17997353
200	0xbda2ba4f	-0.07945692
201	0xbb7ddf30	-0.0038737766
202	0xbe195957	-0.14975487
203	0x3e4a2894	0.19742042
204	0x3cf1e167	0.029526426
205	0xbd8cffff	-0.06884765
206	0x3e27a47c	0.1637134
207	0x3dd2d622	0.10294749
208	0x3d5aa0cb	0.053376
209	0x3e890c3a	0.2676714
210	0x3d13811a	0.036011793
211	0xbd2ca7cb	-0.042152207
212	0x3dbaf592	0.0912887
213	0xbcf147d3	-0.029453194
214	0x3dbe3879	0.09288115
215	0x3d870d66	0.065943524
216	0x3da42bf2	0.080161944
217	0x3de972f9	0.113988824
218	0x3e62f7d6	0.22164854
219	0x3f029fc6	0.51025045
220	0xbdae7c77	-0.085198335
221	0x3c00dc30	0.007864997
222	0x3e02383d	0.12716766
223	0xbe827ccb	-0.25485834
224	0x3e8f8f00	0.28038788
225	0x3e915f56	0.28393048
226	0x3ed2f733	0.41204223
227	0x3f07deee	0.5307454
228	0xbab89233	-0.0014081657
229	0x3df6fa54	0.12059465
230	0x3d825c97	0.06365316
231	0xbebc39ef	-0.3676295
232	0x3cdbc1c7	0.026825799
233	0x3b3c1490	0.002869878
234	0x3e0692a3	0.13141875
235	0x3ec9d622	0.39421183
236	0xbce35384	-0.027749784
237	0xbe1709ca	-0.14749828
238	0xbc82fa1d	-0.015988404
239	0xbec19b64	-0.37813866
240	0xbe426c46	-0.18986616
241	0xbe4877fb	-0.19577019
242	0xbe273691	-0.16329409
243	0xbd747fd6	-0.059692226
244	0xbc36dc69	-0.011160948
245	0xbe0a21a7	-0.134894
246	0xbe1ad9dc	-0.1512217
247	0xbe6eecf6	-0.23332581
248	0xbea28564	-0.31742394
249	0xbe96d150	-0.29456568
250	0xbe8559f8	-0.26045203
251	0xbe5718d1	-0.2100556
252	0xbd2f7bbd	-0.042842615
253	0x3e45cf93	0.19317465
254	0x3e7cd8bb	0.24692051
255	0x3e706e74	0.23479635

fc1.bias f4 [128]
0	0x3d19a3ce	0.037509732
1	0xbe47548f	-0.1946585
2	0x3e0450f0	0.129215
3	0xbd1606bb	-0.036627512
4	0x3ed81392	0.4220243
5	0xbf1a0b0a	-0.60173094
6	0xbf4f17a6	-0.8089546
7	0x3c999c9f	0.01875144
8	0xbe7c03fb	-0.24610893
9	0xbf816d3f	-1.0111464
10	0xbe6c3d1e	-0.2307019
11	0xbe5accfd	-0.2136726
12	0xbd552744	-0.0520394
13	0xbe320e04	-0.17388159
14	0xbd710152	-0.05883915
15	0xbf2c8040	-0.67383194
16	0xbddf63ec	-0.109077305
17	0x3d9a18ef	0.07524287
18	0xbf271b6f	-0.65276235
19	0xbf350342	-0.70708096
20	0x3d83878f	0.0642234
21	0x3bc6feb9	0.006072846
22	0x3debe273	0.11517801
23	0xbe55f9f6	-0.20896134
24	0xbe56a7f1	-0.20962502
25	0xbeb90b16	-0.3614127
26	0xbea3a7bc	-0.3196391
27	0xbd4adea2	-0.049528725
28	0x3c76c78e	0.015062226
29	0x3ee28ab9	0.44246462
30	0xbeb8d7c7	-0.36102125
31	0xbf1a9ba6	-0.6039375
32	0xbeb9c520	-0.36283207
33	0x3bbba96a	0.005726983
34	0x3cd3aa52	0.025838051
35	0x3ddc08e9	0.10743887
36	0xbe999bd0	-0.30001688
37	0xbea77131	-0.32703546
38	0xbe2802cf	-0.16407321
39	0xbeb5c8fb	-0.35504898
40	0x3cdee897	0.027210517
41	0xbd48b562	-0.049001105
42	0x3e6e1034	0.23248369
43	0xbc9b76c3	-0.018977528
44	0x3e84a1ed	0.2590479
45	0x3d918c9b	0.071068965
46	0xbe0929c3	-0.13394837
47	0xbeb4e2b1	-0.35329202
48	0xbe46038c	-0.1933729
49	0xbe57368d	-0.21016903
50	0xbf0e2dd8	-0.555387
51	0xbe3a10cc	-0.1817047
52	0xbd2d6979	-0.042336915
53	0xbd3a1354	-0.04542859
54	0xbd85ba6f	-0.065297
55	0x3db8d482	0.09024908
56	0xbf32dcce	-0.6986817
57	0x3c98a576	0.018633585
58	0xbee60238	-0.44923568
59	0xbe9d1617	-0.30680916
60	0xbe03fb16	-0.1288875
61	0x3ea3b744	0.31975758
62	0x3e4ef5ce	0.20210955
63	0x3dcb6e83	0.09933188
64	0x3c9fd200	0.019509315
65	0x3dc00498	0.09375876
66	0xbe1931c5	-0.14960392
67	0xbd8292ef	-0.063756816
68	0x3d8d81db	0.069095336
69	0x3de1318f	0.10995781
70	0x3ca1ba8a	0.01974227
71	0xbe66fbfc	-0.22557062
72	0xbf451731	-0.7698851
73	0x3e2413e9	0.1602322
74	0x3e96dc61	0.2946501
75	0xbdd2c68e	-0.102917776
76	0x3dd9fe36	0.1064419
77	0x3ae57628	0.0017506527
78	0xbcc0efff	-0.023551939
79	0xbdc4d818	-0.09611529
80	0x3d893e2b	0.06701311
81	0xbf0ecec7	-0.5578427
82	0x3dfed30d	0.124425985
83	0x3e040346	0.12891874
84	0x3e82c33e	0.25539583
85	0xbedd2996	-0.4319579
86	0x3e11e975	0.14249213
87	0xbeb93ec4	-0.361807
88	0xbd755a45	-0.05990054
89	0x3e34987f	0.17636298
90	0xbdbe7142	-0.09298946
91	0x3d9ade94	0.07561985
92	0xbf358b0a	-0.7091528
93	0x3db5337f	0.08847713
94	0xbec5828e	-0.38576168
95	0xbe82397d	-0.25434485
96	0x3d337123	0.043809067
97	0xbe438b64	-0.19096142
98	0xbdb3e939	-0.08784718
99	0xbe635e0d	-0.22203846
100	0xbe6c29d3	-0.2306283
101	0x3eb3a52f	0.35086963
102	0xbed3a26c	-0.41334856
103	0xbf17d46b	-0.593085
104	0xbe1f2cfd	-0.15544505
105	0xbe7446c8	-0.23855126
106	0x3e9413e7	0.28921434
107	0x3d7e864e	0.0621398
108	0x3ca0058a	0.019533891
109	0x3e3cc5bf	0.18434809
110	0x3dd37da6	0.103267
111	0xbe9cc619	-0.30619887
112	0xbb3abb1c	-0.0028492874
113	0x3d28efe4	0.041244403
114	0x3d99d26c	0.07510838
115	0xbefb396a	-0.4906724
116	0xbec1b621	-0.37834266
117	0x3e8b3a1f	0.2719278
118	0xbeadad9a	-0.3392151
119	0xbdd427f8	-0.10359186
120	0x3d85f289	0.065404005
121	0xbd92ef0f	-0.07174503
122	0xbe92cdc8	-0.28672624
123	0x3f176c43	0.5914957
124	0xbdb36ebc	-0.08761355
125	0xbe9fd4f0	-0.31217146
126	0x3ef7d7ba	0.48406774
127	0xbca9d3b4	-0.02073083

fc2.weight f4 [128, 128]
0	0xbf4e1f2a	-0.805163
1	0x3ee7d8d0	0.45282602
2	0xbe89f702	-0.26946265
3	0xbda7c3df	-0.08191656
4	0x3ef8f792	0.4862638
5	0xbe46c4ce	-0.19411013
6	0x3e629a4d	0.22129174
7	0x3e0429f8	0.12906635
8	0xbe0c4b2a	-0.13700548
9	0xbe2863b7	-0.16444288
10	0xbe631a41	-0.22177984
11	0xbcdb4912	-0.026768241
12	0x3d6713e8	0.05641547
13	0x3d947ae2	0.072500005
14	0xbea4eef9	-0.32213572
15	0xbe1564d3	-0.14589243
16	0xbdd3b8fb	-0.103380166
17	0xbec6a0ea	-0.38794643
18	0xbe166507	-0.14686976
19	0xbd315be3	-0.04330052
20	0x3d6bab2d	0.057536293
21	0x3ea99a57	0.33125564
22	0xbe50f419	-0.20405616
23	0xbda3e1d2	-0.08002056
24	0x3c17f526	0.009274757
25	0xbe36ac6d	-0.17839213
26	0xbea53d86	-0.322735
27	0xbe3d3cce	-0.18480226
28	0xbda29a2d	-0.07939563
29	0x3e8103a3	0.25198087
30	0xbef05fe8	-0.4694817
31	0xbe234459	-0.15944041
32	0xbe383718	-0.17989767
33	0xbdfdd62b	-0.12394365
34	0x3e1d2510	0.1534617
35	0x3e7a72d9	0.24457873
36	0x3ec9371f	0.39299867
37	0x3a51563a	0.0007985566
38	0x3e648b02	0.22318652
39	0x3e97d4e0	0.29654598
40	0xbe93fcef	-0.2890391
41	0x3d9f3d61	0.07775379
42	0x3e09d872	0.13461474
43	0x3dd88a8e	0.10573302
44	0x3ce3151f	0.027720032
45	0xbea9009a	-0.3300827
46	0xbbbd74bd	-0.0057817386
47	0xbdb06ec6	-0.08614878
48	0xbe6ecf0c	-0.2332117
49	0x3ca74a09	0.020421045
50	0x3d556f32	0.052107997
51	0xbe657120	-0.22406435
52	0xbe81e6bf	-0.25371358
53	0x3e3acabc	0.182414
54	0x3e9880ae	0.29785675
55	0x3e516bee	0.20451328
56	0xbdcf4fbe	-0.101226315
57	0x3e154378	0.14576519
58	0xbe925f07	-0.28588125
59	0x3daf2aa8	0.08553058
60	0xbcfd811d	-0.030945355
61	0x3b30c55f	0.002697311
62	0x3dd25bbc	0.10271403
63	0x3ca6c9b4	0.020359851
64	0xbe03ffbe	-0.12890527
65	0xbdc580ed	-0.09643731
66	0xbd2c48c7	-0.042061593
67	0x3e153063	0.1456924
68	0xbe436876	-0.19082817
69	0x3edf9e53	0.4367548
70	0x3dcfdf2c	0.101499885
71	0xbe8a1081	-0.26965716
72	0x3d21419c	0.03936921
73	0x3d1afcc4	0.037838712
74	0x3da4a6c8	0.080396235
75	0xbed5fa48	-0.41792512
76	0x3e6f76f5	0.23385222
77	0xbbb0491d	-0.0053798095
78	0xbe72b426	-0.23701534
79	0x3dc1dd59	0.09466047
80	0x3d9ab905	0.07554821
81	0xbec2bca1	-0.38034537
82	0x3e425d76	0.18980965
83	0x3e836226	0.2566082
84	0xbdcbf5d9	-0.09959001
85	0xbd2bc0b9	-0.04193184
86	0x3db8c525	0.09021977
87	0x3e30dd94	0.17272025
88	0xbe8c15e1	-0.27360442
89	0xbd96afdb	-0.073577605
90	0x3efad312	0.4898916
91	0xbc49112e	-0.012272162
92	0x3da5969e	0.080853686
93	0x3d2c5d91	0.04208142
94	0x3f22cc0b	0.63592595
95	0xbd10f64d	-0.03539114
96	0x3e78cb8a	0.24296394
97	0x3d2ea751	0.042640034
98	0x3c5c1a9e	0.01343408
99	0x3dcd1a69	0.10014803
100	0xbbdd8e2a	-0.006761332
101	0x3eb1f1f2	0.34754902
102	0x3d8196c4	0.063275844
103	0x3da1c544	0.078989536
104	0xbe30ef9c	-0.17278904
105	0xbe28df51	-0.16491438
106	0xbdd0ed5d	-0.102015235
107	0x3dca825d	0.09888146
108	0x3d2a2efd	0.041548718
109	0x3dc110e6	0.09427051
110	0x3d975179	0.073885866
111	0xbd51a3c2	-0.051181562
112	0xbe06fc63	-0.13182215
113	0x3dce876f	0.10084426
114	0x3d99ade1	0.07503868
115	0x3eaa0639	0.33207873
116	0xbe706adb	-0.23478262
117	0x3d808957	0.062761955
118	0x3c3bb110	0.011455789
119	0xbf7a0547	-0.976643
120	0x3ccfafd1	0.02535239
121	0xbe34518e	-0.17609236
122	0xbdb52e40	-0.08846712
123	0x3e4c12be	0.19929025
124	0x3d7837c8	0.060600072
125	0xbdfbc3a3	-0.12293174
126	0x3d79b5d2	0.060964413
127	0x3bec8683	0.0072181835
128	0x3f386588	0.72029924
129	0x3dcdd37d	0.10050104
130	0x3e8e11ab	0.27747855
131	0x3f15ea29	0.58560425
132	0xbe790898	-0.24319685
133	0x3e984400	0.2973938
134	0x3ed7c6fe	0.42144006
135	0x3ea1ad06	0.3157732
136	0x3e2ea326	0.17054424
137	0x3c391908	0.011297472
138	0x3d326349	0.043551717
139	0xbd43d0f2	-0.047806688
140	0x3d881780	0.06645107
141	0xbe3b5900	-0.1829567
142	0x3edd84af	0.43265292
143	0xbdf9ec93	-0.12203326
144	0xbe6c98c2	-0.23105147
145	0xbd88863e	-0.0666623
146	0x3d5bc76c	0.05365698
147	0x3ec70c15	0.38876405
148	0x3d24c485	0.040226478
149	0x3da85b3c	0.082205266
150	0xbdd00a2d	-0.10158191
151	0x3de595b1	0.11210192
152	0xbee49725	-0.44646564
153	0x3c82d611	0.015971215
154	0x3c78e83e	0.01519209
155	0xbd6739f5	-0.056451757
156	0x3e12e9d4	0.14347011
157	0xbea16074	-0.315189
158	0x3ebe7ee2	0.3720618
159	0x3ec879d9	0.39155462
160	0x3e089b3e	0.1334047
161	0xbeffc6f6	-0.49956483
162	0xbd706eac	-0.058699295
163	0xbf5ff0c0	-0.8747673
164	0x3e9ffc93	0.31247386
165	0xbe0cf078	-0.13763607
166	0x3e508aca	0.20365444
167	0x3d4e0cd9	0.05030522
168	0x3dbf3513	0.09336295
169	0x3e02b4d8	0.12764299
170	0xbe10951b	-0.14119379
171	0x3d887e40	0.06664705
172	0x3d773066	0.06034889
173	0xbdb33a1c	-0.08751318
174	0x3e1592ba	0.14606753
175	0x3dc03ff7	0.093872
176	0xbca1e1c8	-0.019760981
177	0x3df9e6d4	0.1220223
178	0x3c7b51fe	0.015339373
179	0x3e4b0ed8	0.19829881
180	0xbe126ef3	-0.14300136
181	0xbe6c3fe7	-0.23071252
182	0x3d1a750f	0.037709292
183	0xbeceff61	-0.40429214
184	0xbe005cfd	-0.12535472
185	0xbdca0209	-0.098636694
186	0x3d56b6cb	0.05242042
187	0x3e7d96b4	0.2476452
188	0x3dda32cf	0.10654222
189	0xbd568911	-0.05237681
190	0xbdb0779f	-0.08616566
191	0xbebed632	-0.37272793
192	0xbdbb2016	-0.09136979
193	0xbe057842	-0.13034156
194	0x3e934175	0.28760877
195	0x3d52121d	0.051286805
196	0x3d4e1563	0.050313365
197	0x3dbe2710	0.09284794
198	0xbb5ac30c	-0.0033380417
199	0x3d642058	0.055694908
200	0x3e095e53	0.13414888
201	0xbef8c403	-0.48587045
202	0xbe8584c9	-0.2607787
203	0x3d7697ad	0.060203243
204	0x3e0d014a	0.13770023
205	0x3aa3610f	0.0012464839
206	0x3d1fd8e5	0.039025206
207	0x3ceca102	0.028885368
208	0xbeb6a14a	-0.3566993
209	0x3f4da5d9	0.8033119
210	0xbdb659ae	-0.08903824
211	0xbed1f6d4	-0.41008627
212	0x3e2219f6	0.15830216
213	0xbd05e8e0	-0.03269279
214	0xbeab6d6e	-0.33481926
215	0xbe05ce32	-0.13066939
216	0xbdc00e25	-0.09377698
217	0x3e1906db	0.14944021
218	0xbed8e44d	-0.4236168
219	0xbe7001b4	-0.2343815
220	0xbdd4146c	-0.10355458
221	0x3d727a74	0.05919881
222	0xbece64b2	-0.403112
223	0xbc49f38f	-0.012326135
224	0xbd51b630	-0.05119914
225	0x3e2cf301	0.16889574
226	0x3da6569d	0.08121989
227	0x3d9107e6	0.07081585
228	0x3e2a6fba	0.16644183
229	0xbe932d12	-0.28745323
230	0xbe24d5bf	-0.16097163
231	0x3e123c65	0.14280851
232	0xbec201d7	-0.3789203
233	0xbe18ee52	-0.14934662
234	0xbe2f25c6	-0.17104253
235	0xbe20da46	-0.15708265
236	0xbcca4618	-0.024691626
237	0xbef1c10d	-0.472176
238	0x3d4f2e24	0.050581113
239	0xbdc720bb	-0.0972304
240	0xbcbe7d1e	-0.02325302
241	0x3d77265f	0.060339328
242	0x3df284db	0.118417464
243	0xbd32b641	-0.043630842
244	0x3d9ff47f	0.07810306
245	0x3e00ff19	0.12597312
246	0x3bc9989b	0.006152225
247	0xbd02bc39	-0.031917784
248	0xbe9086a6	-0.2822773
249	0x3c946f2b	0.018119415
250	0xbed2cb01	-0.41170505
251	0xbd6189c7	-0.055063035
252	0x3dc434cb	0.09580382
253	0xbdc5d7f7	-0.09660333
254	0x3da7c9bc	0.08192775
255	0xbc9e34bf	-0.01931226

fc2.bias f4 [128]
0	0x3e99ff5d	0.3007764
1	0xbe7c4e14	-0.2463916
2	0xbd83977d	-0.064253785
3	0x3e32b09e	0.17450187
4	0xbcc67e1b	-0.024230054
5	0x3ee58b4c	0.44832838
6	0xbdd73b4c	-0.10509357
7	0x3e37edbd	0.17961784
8	0x3d841dc1	0.064509876
9	0x3e8f7a83	0.28023157
10	0x3e2bf9fc	0.1679458
11	0xbd8a3ef8	-0.067502916
12	0x3ec924c5	0.39285865
13	0xbddad6e6	-0.1068552
14	0x3e95cc15	0.29257265
15	0x3e0ed61d	0.13948865
16	0x3ef851c4	0.48499882
17	0x3dd95218	0.10611361
18	0x3e3355eb	0.17513244
19	0xbdcfad12	-0.101404324
20	0x3ee2ae7b	0.44273743
21	0xbddf1cc4	-0.108941585
22	0x3d853ac8	0.06505352
23	0x3de3b1dd	0.11117909
24	0xbe9126cb	-0.2834991
25	0x3e87f5bc	0.26554668
26	0x3d6f9217	0.05848893
27	0x3edd4fe4	0.43225014
28	0x3e884783	0.2661706
29	0xbe24a851	-0.16079833
30	0x3e900edb	0.28136334
31	0x3e4a18ca	0.19736019
32	0x3e0e9931	0.13925625
33	0xbe2754ce	-0.16340944
34	0x3e0e32a9	0.13886513
35	0x3d20e993	0.039285254
36	0x3ec8ffcf	0.39257666
37	0xbd7131ac	-0.05888526
38	0xbe591667	-0.21199952
39	0xbe1cf816	-0.15329012
40	0xbeb91391	-0.3614774
41	0x3e7ddaaa	0.24790445
42	0xbdef85cc	-0.116954416
43	0xbdd242ee	-0.10266672
44	0x3bd49719	0.006487739
45	0xbe8bb17e	-0.27283853
46	0x3ea057a9	0.3131688
47	0xbd371ab7	-0.04470321
48	0xbcebb7e1	-0.028774204
49	0x3d1555f4	0.036458924
50	0x3e52cd6d	0.20586176
51	0xbe8e0a12	-0.27742058
52	0x3c824880	0.015903711
53	0xbe90aeec	-0.28258455
54	0x3db67a5a	0.089100555
55	0x3e0380d8	0.12842119
56	0x3e4197f6	0.18905625
57	0xbdc7132c	-0.097204536
58	0x3dfcc84d	0.12342892
59	0x3d967aef	0.073476665
60	0x3de8028c	0.11328611
61	0xbdf628b1	-0.1201948
62	0x3dad6016	0.084655926
63	0xbe473d36	-0.19456944
64	0x3a98f95f	0.0011670998
65	0xbe4b8051	-0.19873168
66	0x3e9e812b	0.30957922
67	0x3e6f5398	0.23371732
68	0x3c58caa3	0.013231906
69	0x3e4bf894	0.19919044
70	0x3c614e57	0.013751588
71	0x3d40137d	0.046893585
72	0xbddf3e27	-0.109005265
73	0xbe6aa532	-0.2291458
74	0xbc3161e9	-0.010826566
75	0xbd3a87aa	-0.045539536
76	0x3e2c60ff	0.16833876
77	0x3de1e3c8	0.11029774
78	0x3d7bbe9d	0.06146108
79	0x3e3eb4b1	0.18623616
80	0xbe97c6f2	-0.2964397
81	0x3ee20206	0.4414217
82	0xbe13213e	-0.1436815
83	0x3e6c016d	0.23047419
84	0x3ec17907	0.3778765
85	0x3e3ad974	0.18247014
86	0x3c9ad74f	0.018901495
87	0x3e8eaf1f	0.27867982
88	0xbd42687a	-0.047462918
89	0x3edef4af	0.43546054
90	0x3e01df13	0.12682752
91	0x3e38088b	0.17972009
92	0xbd7f7ab5	-0.062372882
93	0x3ea9f380	0.33193588
94	0x3eba614d	0.3640236
95	0xbe2e7c22	-0.1703954
96	0x3e163574	0.14668828
97	0x3d8abdbc	0.0677447
98	0xbbcb8ef7	-0.006212111
99	0x3d9b5ea4	0.07586411
100	0x3cbcd606	0.023051273
101	0x3e0a9261	0.13532402
102	0x3e42a1de	0.1900706
103	0x3d064bec	0.03278725
104	0xbda6854d	-0.08130894
105	0xbd98ab69	-0.07454569
106	0x3e299404	0.1656037
107	0xbd930a90	-0.07179749
108	0x3e7c4de5	0.2463909
109	0xbd1d2214	-0.038362578
110	0x3dc05520	0.09391236
111	0x3e55288b	0.20816247
112	0x3de3b429	0.11118347
113	0xbb9c9650	-0.004778661
114	0xbe46cc74	-0.1941393
115	0xbe7acba8	-0.24491751
116	0x3e371721	0.17879917
117	0x3e9dcecd	0.3082184
118	0xbcdfb4ac	-0.02730783
119	0xbdca5252	-0.098789826
120	0xbe0bbfab	-0.13647334
121	0x3e68ad14	0.22722274
122	0x3f054133	0.5205261
123	0x3e498d29	0.19682755
124	0xbc5af730	-0.013364598
125	0x3ed0ea47	0.4080374
126	0xbd089f41	-0.033355
127	0x3eb1c118	0.3471763

fc3.weight f4 [6, 128]
0	0x3d587e8e	0.052855067
1	0xbe600b5e	-0.21879336
2	0xbea52ecb	-0.32262263
3	0x3d4acd6d	0.049512316
4	0xbeec7098	-0.46179652
5	0xbf66310d	-0.89918596
6	0xbd8d73cb	-0.069068514
7	0xbdce8760	-0.100844145
8	0x3f0a25ce	0.53963935
9	0xbf1ff48e	-0.62482536
10	0x3f0fcf1e	0.5617541
11	0x3a9dec72	0.0012048616
12	0x3dfc4f42	0.12319805
13	0x3cdb523b	0.026772609
14	0x3da5d4b9	0.08097214
15	0xbf0c3b3b	-0.5477788
16	0xbfde6be4	-1.7376676
17	0x3f27db18	0.65568686
18	0xbe997017	-0.2996833
19	0x3e575639	0.21028985
20	0x3e0583c6	0.13038549
21	0xbdf210e1	-0.11819626
22	0xbee22a7b	-0.44173035
23	0xbf8455ae	-1.0338647
24	0xbeae4651	-0.34038022
25	0x3e7b8c28	0.24565184
26	0x3f08029c	0.5312898
27	0x3f7d3f13	0.9892437
28	0x3ddcf65f	0.10789179
29	0x3f0cadbf	0.54952615
30	0xbf8b99eb	-1.0906347
31	0x3ee05598	0.43815303
32	0x3db76f4a	0.089567736
33	0xbc931dc3	-0.017958527
34	0xbf1f2e56	-0.6218008
35	0xbe8bad27	-0.27280542
36	0x3dc9ecc5	0.09859613
37	0xbb8b8f6b	-0.00425904
38	0xbf840ceb	-1.0316442
39	0xbdd06ba2	-0.10176779
40	0xbf03538b	-0.5129935
41	0x3e345176	0.176092
42	0x3c6e10f7	0.014530412
43	0xbd10426e	-0.035219602
44	0x3e172324	0.14759499
45	0x3f18ffdf	0.5976543
46	0x3e819603	0.25309762
47	0x3ee66a8d	0.45003167
48	0xbe74c806	-0.23904428
49	0xbd57d4e4	-0.052693263
50	0x3ed80833	0.42193756
51	0xbfa8d069	-1.3188602
52	0x3dcf8abf	0.101338856
53	0x3e737703	0.23775868
54	0xbddf6350	-0.10907614
55	0x3cce0754	0.025149979
56	0x3dfc27aa	0.12312253
57	0x3f0e01bb	0.5547139
58	0xbf6c212e	-0.9223813
59	0x3ea2e2df	0.31813714
60	0xbecd81ac	-0.40137994
61	0x3c9ed026	0.019386362
62	0x3d03b1a5	0.032151837
63	0xbf12ad12	-0.57295334
64	0x3d982efc	0.074308366
65	0xbe360477	-0.1777514
66	0x3da9cc3e	0.08290909
67	0xbf6ce98b	-0.9254386
68	0xbe9ca59f	-0.3059511
69	0x3e2e32c1	0.17011549
70	0xbd2eb5b5	-0.042653758
71	0xbec2e503	-0.38065347
72	0x3f137d14	0.5761273
73	0xbf52e938	-0.82387114
74	0x3dad6a67	0.0846756
75	0xbfa99256	-1.3247783
76	0x3f53c861	0.8272763
77	0x3cd0bb31	0.025479885
78	0xbeeba34e	-0.4602303
79	0x3e4ed2e2	0.20197633
80	0xbe92777f	-0.28606793
81	0x3db2bbf6	0.08727257
82	0xbe84e691	-0.25957158
83	0x3e706b88	0.2347852
84	0xbe8a1347	-0.26967832
85	0x3e46044c	0.19337577
86	0x3c621441	0.013798774
87	0x3e7e0d7b	0.2480983
88	0x3e430b60	0.19047308
89	0x3cb5eced	0.022207702
90	0x3e6c1149	0.23053469
91	0x3e408e99	0.18804397
92	0x3f09dc8b	0.53852147
93	0x3da3e9bc	0.08003566
94	0x3f0b0036	0.54297197
95	0xbf35f186	-0.7107166
96	0x3d8ec5da	0.06971331
97	0x3ec277b4	0.3798195
98	0xbf0fa0ab	-0.56104535
99	0xbea5d35a	-0.3238781
100	0xbd611965	-0.05495586
101	0x3e1dd2ec	0.15412492
102	0x3db2497a	0.08705421
103	0x3ddcb46d	0.10776601
104	0xbbaaec5a	-0.0052161636
105	0xbee58aab	-0.44832358
106	0x3ee12e53	0.43980655
107	0xbf3cf053	-0.73804206
108	0x3e3eade4	0.18621022
109	0x3eb0856a	0.34476787
110	0xbe2c6754	-0.16836292
111	0x3f2b497d	0.6690901
112	0x3e5a9ad5	0.21348126
113	0xbf6a3ca9	-0.9149881
114	0xbeefc76f	-0.46831843
115	0xbf85563e	-1.0416944
116	0x3dee6270	0.11639869
117	0x3e75a469	0.23988499
118	0x3e8be1d7	0.2732074
119	0x3c39164c	0.01129682
120	0xbefe85fe	-0.49711603
121	0x3ede138a	0.43374282
122	0x3dc2cdca	0.095119074
123	0x3f9cbb58	1.2244673
124	0x3c17c8f0	0.009264216
125	0x3da9026e	0.082524166
126	0xbf147fc3	-0.5800745
127	0x3eb47612	0.3524633
128	0x3da19dda	0.07891436
129	0x3d925202	0.07144548
130	0x3e34973e	0.1763582
131	0x3d834259	0.06409139
132	0x3ea67a3d	0.32515135
133	0x3f4b9059	0.7951713
134	0x3e8b6933	0.27228698
135	0x3edf4dbb	0.4361399
136	0x3d2e43fa	0.042545296
137	0x3f785fc7	0.97021145
138	0x3e66e033	0.22546463
139	0xbd18a225	-0.037264008
140	0x3c93ed03	0.018057352
141	0x3e18c984	0.14920622
142	0xbecb9453	-0.397616
143	0x3f2789ba	0.6544453
144	0x3fe53d15	1.7909266
145	0xbda803fd	-0.08203886
146	0x3f3293b6	0.6975664
147	0x3ea1e252	0.3161798
148	0x3d8f33bb	0.06992289
149	0x3ec13281	0.37733844
150	0xbf0541f8	-0.52053785
151	0xbf7c77f6	-0.98620546
152	0xbf5ddddd	-0.8666666
153	0xbf281e80	-0.6567154
154	0xbf0ced1e	-0.5504931
155	0xbdeb80d5	-0.11499182
156	0xbc98662c	-0.018603407
157	0xbdcfd14e	-0.101473436
158	0xbeb254db	-0.34830365
159	0xbf148253	-0.5801136
160	0x3dee013a	0.11621328
161	0x3d3c4190	0.045960963
162	0x3e9bcac8	0.30428147
163	0xbf017bff	-0.5057983
164	0xbec1e042	-0.37866408
165	0xbc0aed18	-0.008479379
166	0x3e431fd3	0.19055109
167	0x3e850c4e	0.2598595
168	0x3f0d8b51	0.55290705
169	0xbcda5e30	-0.02665624
170	0xbd79a9c2	-0.06095291
171	0x3f0246a2	0.5088903
172	0xbf0cdec5	-0.5502742
173	0xbb80488a	-0.0039148973
174	0xbf3497f2	-0.7054435
175	0x3e021cfb	0.12706368
176	0xbebf3856	-0.37347668
177	0xbe3da5ff	-0.18520354
178	0xbf466162	-0.77492344
179	0x3f23cc45	0.63983566
180	0x3e8754d6	0.26431912
181	0x3ef203c1	0.4726849
182	0x3e2099f5	0.1568373
183	0x3dbde0c8	0.09271389
184	0xbedb1496	-0.42789143
185	0x3e472666	0.19448242
186	0xbf33631e	-0.70073116
187	0xbca13409	-0.019678133
188	0xbf89d1a7	-1.0767106
189	0x3cc53d59	0.024077104
190	0x3ea8fba4	0.33004487
191	0x3e6ce896	0.231356
192	0xbd242ce8	-0.04008189
193	0x3dc7a109	0.09747512
194	0x3d59e43b	0.053196173
195	0xbf400883	-0.7501299
196	0x3ec42898	0.3831222
197	0x3f4acf47	0.7922253
198	0xbd63283f	-0.055458304
199	0x3e826961	0.25471023
200	0xbe775a92	-0.24155644
201	0x3e07c665	0.13259275
202	0xbe0592ff	-0.13044356
203	0xbe8da5d2	-0.27665573
204	0xbf140db4	-0.5783341
205	0x3e27bba8	0.16380179
206	0x3e8f4244	0.27980244
207	0x3cb49d57	0.022047682
208	0x3e93f512	0.2889791
209	0x3de896e5	0.11356906
210	0x3f30e699	0.69101864
211	0x3dd4bf82	0.1038809
212	0x3f13c5cc	0.5772369
213	0xbd9df190	-0.0771209
214	0xbd08bbf4	-0.03338237
215	0x3e94d61b	0.290696
216	0x3e65ad80	0.22429466
217	0xbdfd092d	-0.12355266
218	0x3e911846	0.28338832
219	0xbd011958	-0.03151831
220	0x39123f89	0.00013947314
221	0xbe069292	-0.1314185
222	0xbf43a6d8	-0.7642646
223	0x3e8d3b22	0.27584177
224	0x3e26338e	0.16230604
225	0xbf9773b1	-1.1832181
226	0x3c0508ce	0.008119775
227	0x3e6b44da	0.22975484
228	0xbc8625ec	-0.016375504
229	0xbcd3a715	-0.025836507
230	0x3da8d455	0.08243624
231	0xbe91bfaa	-0.2846654
232	0xbb241e9e	-0.0025042663
233	0xbf2255bd	-0.63412076
234	0x3e1504c5	0.145526
235	0xbe37d98f	-0.17954086
236	0xbf18eb26	-0.5973381
237	0x3e262c36	0.16227803
238	0x3f5849ad	0.8448742
239	0x3e30e1bb	0.1727361
240	0x3d8b1e88	0.06792933
241	0xbeb9ea90	-0.3631177
242	0x3db6274d	0.08894215
243	0x3e1da768	0.15395892
244	0xbd5d8cff	-0.054089542
245	0x3d1310cf	0.0359047
246	0x3e89b439	0.2689531
247	0xbcf5348d	-0.029932285
248	0x3f25b7a8	0.6473336
249	0xbe0f200f	-0.13977073
250	0x3d4c2917	0.049843874
251	0xbeb81002	-0.35949713
252	0xbdcf7682	-0.101300254
253	0x3e08fd72	0.13377932
254	0x3d7989d7	0.06092247
255	0xbf3f0ae6	-0.74626005

fc3.bias f4 [6]
0	0x3e93ea52	0.2888971
1	0xbbc83501	-0.006109834
2	0xbd710dcb	-0.058851045
3	0xbd7ce472	-0.0617413
4	0xbe02b1a6	-0.1276308
5	0x3e056212	0.13025692
