gesture_model_2708.pth (torch, 93878 bytes, 6 tensors)

fc1.weight f4 [128, 42]
0	0x3e27309a	0.16327134
1	0xbe86023f	-0.2617359
2	0x3e7260dc	0.23669761
3	0xbe6de0b6	-0.23230252
4	0x3e59d34e	0.21272013
5	0x3dab1d5d	0.0835521
6	0x3df05eba	0.11736818
7	0xbe730590	-0.2373259
8	0x3ded62aa	0.11591084
9	0xbebb6fb3	-0.36608657
10	0xbdae1934	-0.08500901
11	0xbd1b538f	-0.037921485
12	0x3dee19fa	0.116260484
13	0xbda18de6	-0.07888393
14	0x3e14dd7b	0.14537613
15	0xbd578a7e	-0.05262231
16	0xbe084b45	-0.13309963
17	0xbddc1e42	-0.10747959
18	0x3d50e128	0.050995976
19	0x3dbc6150	0.091982484
20	0x3da23368	0.07919961
21	0x3d67ddc7	0.056607988
22	0xbd743576	-0.059621297
23	0xbd656ba0	-0.056010842
24	0x3d718be0	0.058971286
25	0xbe35f1f5	-0.1776808
26	0x3d95e122	0.07318331
27	0xbe363bfe	-0.17796323
28	0x3d022b4e	0.03177958
29	0xbd254198	-0.04034576
30	0xbddf0fac	-0.10891661
31	0x3e2d7f3c	0.16943067
32	0x3cd5113d	0.026009196
33	0x3e03e0f7	0.12878786
34	0xbe0fcdfa	-0.14043418
35	0xbe4c7257	-0.19965492
36	0xbd83cba3	-0.06435325
37	0x3e25d5f8	0.16194904
38	0xbe9994ab	-0.29996237
39	0x3e7f58fd	0.2493629
40	0xbecd7b49	-0.40133122
41	0x3edff613	0.43742427
42	0x3e7d4f8e	0.24737379
43	0x3c6a33b8	0.014294557
44	0x3ea04ea4	0.31309998
45	0xbd9df62f	-0.077129714
46	0x3d2e248d	0.042515326
47	0x3df73579	0.12070746
48	0x3bb93522	0.005652086
49	0x3d8769d0	0.06611979
50	0xbe0dc424	-0.13844353
51	0x3eceaa4a	0.40364295
52	0x3ea7f8f4	0.32807124
53	0xbd933fc3	-0.07189896
54	0x3daadba1	0.08342672
55	0xbeb8b6f4	-0.36077082
56	0x3cc1dbea	0.023664434
57	0xbea76b3f	-0.3269901
58	0xbec6f3e3	-0.38857946
59	0xbea13947	-0.31489012
60	0xbb4e4367	-0.003147328
61	0x3e0bde3f	0.13658999
62	0xbe33218e	-0.17493269
63	0xbd2e0c5a	-0.042492248
64	0xbea39a5d	-0.31953707
65	0x3dc3599f	0.09538578
66	0xbed8a3c3	-0.4231244
67	0x3e9fc699	0.31206205
68	0x3cd50808	0.026004806
69	0xbd5228da	-0.05130849
70	0x3d8c65e7	0.06855374
71	0x3e44bc73	0.19212513
72	0x3da31cdd	0.079644896
73	0xbdd3433e	-0.1031556
74	0x3e8db013	0.27673396
75	0xbdc89b9a	-0.09795304
76	0xbd1a1cb0	-0.037625015
77	0xbc210985	-0.00982893
78	0xbd45fe5b	-0.048338275
79	0x3d5b3079	0.053513024
80	0x3c384a30	0.011248156
81	0xbb8e86a8	-0.0043495484
82	0x3c99912c	0.018745981
83	0x3dfda243	0.123844646
84	0xbea396cf	-0.31950995
85	0xbe934324	-0.28762162
86	0xbe04a7e3	-0.12954669
87	0xbea26fc2	-0.3172589
88	0xbde29e64	-0.11065367
89	0xbe39aaae	-0.18131515
90	0x3d8d1229	0.068882294
91	0xbdb65137	-0.08902209
92	0xbda1dbb1	-0.07903231
93	0x3ec8ec3d	0.39242736
94	0x3d9075fd	0.070537545
95	0xbe46f307	-0.19428645
96	0x3d5b53d7	0.053546753
97	0xbbaa9813	-0.005206117
98	0x3de9ba78	0.11412519
99	0x3e026625	0.12734278
100	0x3e05ac20	0.13053942
101	0xbe2959a4	-0.16538101
102	0xbd1fa77c	-0.038978085
103	0xbd94d3a0	-0.07266927
104	0xbd7f9224	-0.06239523
105	0x3dbe85c5	0.09302858
106	0xbd9d5954	-0.076830536
107	0x3c9b7d6d	0.018980706
108	0x3c0b8375	0.0085152285
109	0xbea91010	-0.33020067
110	0xbdab16bb	-0.08353945
111	0xbdac80d8	-0.084230125
112	0xbdc73c41	-0.097282894
113	0x3e8f51f9	0.27992228
114	0xbc5dbf92	-0.013534443
115	0x3e66916a	0.22516409
116	0xbd03c66c	-0.03217165
117	0xbd388ad5	-0.045054276
118	0x3d3daeb8	0.046309203
119	0x3da30541	0.079599865
120	0xbccdb2fc	-0.02510976
121	0x3e039bcf	0.12852405
122	0xbd15ccac	-0.036572143
123	0x3e7a088c	0.24417323
124	0xbcbbecb4	-0.022940017
125	0x3de9223c	0.11383483
126	0x3e1500f8	0.14551151
127	0xbd30dd01	-0.043179516
128	0x3ea9d3e1	0.33169463
129	0x3e90eb6a	0.28304607
130	0x3e461d8a	0.19347206
131	0x3ec8df01	0.39232638
132	0x3dcaa1ea	0.09894164
133	0x3e8b3b53	0.27193698
134	0x3d7edf8b	0.062224906
135	0xbd596618	-0.05307588
136	0xbdbbbc39	-0.0916676
137	0x3edbc422	0.42923075
138	0xbd90a579	-0.070628114
139	0x3e6d77e9	0.23190273
140	0xbd18dd10	-0.037320197
141	0xbc36ef5c	-0.011165466
142	0x3d483b25	0.04888453
143	0x3db815b3	0.08988514
144	0xbe5026cd	-0.20327301
145	0xbc1cc49d	-0.009568361
146	0xbe6b8151	-0.22998549
147	0xbdc5edc9	-0.096644945
148	0xbe0b1391	-0.13581683
149	0xbeb1c78f	-0.34722564
150	0xbd9f3f23	-0.07775714
151	0xbece35bd	-0.40275374
152	0xbe2f790f	-0.17136024
153	0xbe4f3821	-0.20236255
154	0xbe43cbe6	-0.1912075
155	0xbdd01622	-0.101604715
156	0xbc8417b5	-0.016124586
157	0xbdb881dd	-0.090091445
158	0x3ebcad7f	0.36851117
159	0x3d6ea2cb	0.05826072
160	0xbe233857	-0.1593946
161	0xbedab79f	-0.42718217
162	0xbd7a1230	-0.0610525
163	0xbecf36f6	-0.4047162
164	0x3918ee42	0.00014584608
165	0x3d018642	0.03162218
166	0x3e0f1b45	0.13975246
167	0x3e8cd6ca	0.2750762
168	0xbec3cc13	-0.38241634
169	0xbe56a9b7	-0.20963179
170	0xbe2a6724	-0.16640908
171	0xbdb411fb	-0.08792492
172	0xbe852183	-0.2600213
173	0x3dec227d	0.115300156
174	0xbe336650	-0.17519498
175	0x3e71688a	0.23575035
176	0xbf210425	-0.6289695
177	0x3e9bc915	0.3042685
178	0x3dbe9577	0.09305852
179	0xbdb52521	-0.088449724
180	0x3d97cab7	0.07411712
181	0xbc6f3f0c	-0.014602434
182	0x3d20dcaa	0.03927294
183	0x3afda3a7	0.001935114
184	0x3e1c472d	0.15261526
185	0xbe4d611b	-0.20056574
186	0x3d0131c1	0.03154159
187	0xbcab4bd8	-0.020910189
188	0x3c6e8c74	0.014559854
189	0xbdf3cba2	-0.11904074
190	0x3d5988a4	0.053108826
191	0xbc05295f	-0.008127539
192	0x3e300e06	0.1719285
193	0x3d892993	0.06697383
194	0xbd2da889	-0.042397056
195	0xbde19453	-0.11014619
196	0xbda7cbf4	-0.08193198
197	0xbca413de	-0.020029005
198	0x3ecfe4cc	0.40604246
199	0xbe2f1079	-0.17096128
200	0x3efd076a	0.4941972
201	0xbcd0c765	-0.025485704
202	0xbe889721	-0.26677802
203	0x3dd7c757	0.10536068
204	0xbc7c552b	-0.015401165
205	0x3a2820d2	0.0006413582
206	0x3e21a44c	0.1578533
207	0x3dae6d84	0.08516982
208	0x3ecac7fd	0.39605704
209	0xbe2c139f	-0.1680436
210	0xbe3037b9	-0.17208757
211	0xbd6cb11b	-0.05778609
212	0xbd8c0b5f	-0.06838106
213	0x3dd8bf29	0.10583336
214	0xbdf1490b	-0.1178151
215	0xbe54a3d4	-0.2076562
216	0x3c5c4c76	0.013445964
217	0xbe930bf6	-0.28720063
218	0x3e029827	0.12753354
219	0xbcad1774	-0.021129347
220	0xbd8a0371	-0.06738938
221	0x3df13db1	0.11779345
222	0xbdd3a3e7	-0.10333996
223	0xbde1df04	-0.11028865
224	0xbe860041	-0.2617207
225	0x3df8942d	0.12137637
226	0xbe70338e	-0.23457167
227	0x3ed78dbd	0.42100325
228	0xbe11271c	-0.14175075
229	0x3e0eeefb	0.13958351
230	0x3d45c5f6	0.048284493
231	0x3e800ff5	0.25012174
232	0x3df8a978	0.121416986
233	0x3d830aa9	0.06398518
234	0x3e9570fd	0.29187766
235	0x3e394ba4	0.18095261
236	0xbcf6c7da	-0.030124594
237	0x3e936a3f	0.28791997
238	0x3ddcd79a	0.1078331
239	0x3c45a479	0.012063139
240	0x3da7219b	0.081607066
241	0x3d164f05	0.036696453
242	0x3e5060ad	0.20349379
243	0xbcf4deee	-0.029891457
244	0x3e926e76	0.285999
245	0x3e3f52d0	0.18683934
246	0x3e8f9e73	0.28050575
247	0xbcccd28b	-0.025002738
248	0x3e8edec3	0.2790433
249	0xbd3b614a	-0.04574708
250	0x3ca02691	0.01954964
251	0xbeb871be	-0.36024278
252	0x3e83b9c6	0.2572767
253	0xbeef0afc	-0.46688068
254	0x3e85f08d	0.26160088
255	0xbec7ed86	-0.39048404

fc1.bias f4 [128]
0	0x3ea030c2	0.312872
1	0xbe95eda4	-0.29282868
2	0x3ed18f66	0.40929717
3	0xbd412b67	-0.047160532
4	0xbe3b968e	-0.18319151
5	0xbebcac53	-0.36850223
6	0x3eaa678a	0.3328212
7	0x3eb76856	0.3582179
8	0xbeaa0a8b	-0.3321117
9	0xbf20c5f6	-0.62802064
10	0xbd6bfd35	-0.057614524
11	0xbe61dc5a	-0.22056714
12	0x3c0fe4cd	0.008782578
13	0xbf23a4dd	-0.63923436
14	0xbda301c9	-0.07959325
15	0xbe8c7d23	-0.27439222
16	0xbe0edabf	-0.13950633
17	0xbdc27b56	-0.09496181
18	0xbd899e18	-0.06719607
19	0x3e8832dd	0.26601306
20	0xbe5208a7	-0.20511113
21	0xbe44d319	-0.19221152
22	0xbe02a8df	-0.12759732
23	0x3d46bdd6	0.048520885
24	0x3e271acc	0.16318816
25	0xbf15fa1b	-0.58584756
26	0x3ddfbf1b	0.10925122
27	0x3ddc6a3c	0.1076245
28	0xbe651197	-0.22369991
29	0x3d0c9552	0.03432209
30	0xbc94c9fd	-0.018162722
31	0x3e2b8a3d	0.16751952
32	0xbed23e11	-0.41062978
33	0xbe9f2c3b	-0.31088433
34	0xbd94da91	-0.07268251
35	0x3e12cbfe	0.1433563
36	0xbe96bcc0	-0.2944088
37	0x3ddbcaf9	0.10732073
38	0xbda3980a	-0.079879835
39	0xbe6b0357	-0.22950493
40	0xbe202dc9	-0.15642466
41	0x3e65e8de	0.22452113
42	0xbe20e954	-0.15714008
43	0xbe0b6245	-0.13611706
44	0xbe813466	-0.2523529
45	0xbe3912e0	-0.18073606
46	0x3e0c8444	0.1372233
47	0x3dc764d8	0.09736031
48	0x3ef75705	0.48308578
49	0x3bd2b225	0.006429928
50	0x3da7a4b2	0.0818571
51	0xbe846125	-0.25855365
52	0xbd9c7c81	-0.07640935
53	0x3e11d26b	0.14240424
54	0x3e34f5c3	0.17671876
55	0xbd2a7f82	-0.041625507
56	0xbeb0537f	-0.34438702
57	0xbe649751	-0.22323348
58	0x3f011330	0.504199
59	0xbe9f434a	-0.31106025
60	0x3e3b15fe	0.18270108
61	0x3dc9728e	0.09836303
62	0xbd9a4366	-0.075323865
63	0xbeeb5cc0	-0.459692
64	0xbe1a8b33	-0.15092163
65	0xbdb3fcea	-0.08788474
66	0xbeba8b7e	-0.3643455
67	0x3e36064e	0.17775843
68	0x3e5ad3ba	0.2136983
69	0x3e847712	0.25872093
70	0xbf1a31ed	-0.6023243
71	0xbec713c0	-0.38882256
72	0xbd0b1c09	-0.033962283
73	0xbdb26e72	-0.08712472
74	0xbe22ad6a	-0.15886465
75	0xbeaa1c53	-0.33224735
76	0xbc0511c1	-0.008121909
77	0xbe8a9dc8	-0.27073503
78	0xbcc5ea52	-0.024159584
79	0xbe1b655d	-0.15175386
80	0x3d429950	0.04750949
81	0xbe8066a9	-0.25078323
82	0xbd4691bc	-0.048478827
83	0x3e5f2c45	0.21794231
84	0x3e59cfc7	0.21270667
85	0xbec1c07b	-0.37842163
86	0xbe75b289	-0.23993887
87	0xbceb8a3b	-0.028752437
88	0x3e90ba80	0.28267288
89	0xbcf86016	-0.030319255
90	0xbdae5d73	-0.08513918
91	0xbe448719	-0.1919216
92	0x3e4e4573	0.2014368
93	0x3eaae840	0.33380318
94	0xbedb9acb	-0.42891535
95	0xbe9bc407	-0.30422994
96	0x3ddc4194	0.107546955
97	0xbe463c17	-0.1935886
98	0xbeea8556	-0.45804852
99	0xbe029e50	-0.12755704
100	0xbecfb8e0	-0.40570736
101	0xbe4114dc	-0.18855613
102	0x3e054772	0.13015535
103	0x3d2ab83c	0.041679606
104	0x3e535da7	0.20641194
105	0xbe27b256	-0.16376624
106	0xbe16e029	-0.14733948
107	0x3d8db863	0.069199346
108	0x3dad0128	0.08447486
109	0x3e15babd	0.14622016
110	0xbe5daed5	-0.21648724
111	0xbe46d0b7	-0.19415556
112	0x3e1b3571	0.15157105
113	0xbc74cd0f	-0.014941468
114	0x3d977194	0.0739471
115	0xbe9697e2	-0.29412752
116	0xbc144e83	-0.009051922
117	0x3e1a097b	0.15042679
118	0xbe94302b	-0.28943
119	0xbe50d4d5	-0.20393689
120	0xbebdd7b8	-0.37078643
121	0xbd99a6ae	-0.07502495
122	0xbf0d454a	-0.5518385
123	0xbe6a0b37	-0.2285584
124	0xbd0f1c23	-0.034938943
125	0xbe3d05b9	-0.18459214
126	0xbc640098	-0.013916157
127	0xbce0fbd5	-0.027463833

fc2.weight f4 [128, 128]
0	0x3c83889a	0.016056348
1	0xbd320df9	-0.043470357
2	0x3def7c4f	0.11693632
3	0xbdb96920	-0.09053254
4	0x3eaafea3	0.33397397
5	0xbd9a3380	-0.07529354
6	0x3d6ce583	0.057836067
7	0xbda4c97a	-0.08046241
8	0x3db4eae3	0.088338636
9	0xbd98d391	-0.07462228
10	0x3dd6cbb1	0.1048807
11	0xbeddaa7f	-0.4329414
12	0x3dd45ece	0.10369645
13	0xbe1aa8c2	-0.15103438
14	0xbebcf330	-0.36904287
15	0xbeac2d68	-0.33628392
16	0x38a75842	7.97962e-05
17	0xbe679165	-0.22614057
18	0xbd5091f8	-0.050920457
19	0x3d854e97	0.065091304
20	0x3d6ed2a2	0.058306344
21	0x3d7c9c56	0.06167253
22	0x3ca04d45	0.019568095
23	0x3c4a30de	0.012340752
24	0x3d637ad6	0.055537067
25	0x3df96a81	0.12178517
26	0x3c112a25	0.008860146
27	0xbdcb3705	-0.099226035
28	0x3b538c68	0.0032279734
29	0x3de5360b	0.111919485
30	0xbe9db0c7	-0.30798933
31	0xbd3ccd39	-0.046094153
32	0xbc3dffae	-0.011596603
33	0x3d1160d5	0.035492737
34	0x3db8b067	0.09018021
35	0xbceeebf9	-0.029165255
36	0xbd221744	-0.03957297
37	0x3e32ef5d	0.17474122
38	0x3df3877f	0.11891078
39	0x3c0deb6b	0.008662085
40	0x3d8122ce	0.063054666
41	0xbd87c190	-0.06628716
42	0x3d89fc9d	0.06737635
43	0x3e329997	0.17441402
44	0x3e1eb9ff	0.1550064
45	0x3e15ace4	0.14616734
46	0xbe1f97db	-0.15585272
47	0x3dc51086	0.09622292
48	0x3e739ab9	0.23789491
49	0x3d00d5ee	0.03145402
50	0x3d49e2f2	0.049288698
51	0xbdd3c195	-0.10339657
52	0xbe6cdd3c	-0.23131269
53	0xbd4b6d2d	-0.049664665
54	0xbdbcfdfd	-0.09228132
55	0xbe239808	-0.15975964
56	0xbe7ff196	-0.24994501
57	0xbe8ca3c3	-0.2746869
58	0x3e3a9254	0.18219882
59	0x3e83b1f6	0.2572171
60	0xbd0a4169	-0.033753786
61	0xbdf318db	-0.11869975
62	0xbdedd50f	-0.11612903
63	0xbf16177e	-0.58629596
64	0xbe69ca6a	-0.22831121
65	0x3ccc4ad9	0.024938034
66	0xbd07c72c	-0.03314893
67	0xbdc66472	-0.09687127
68	0x3e2be84c	0.16787833
69	0x3dab6c60	0.0837028
70	0x3dbb0abc	0.09132907
71	0xbea4ddfe	-0.32200617
72	0x3c9059a0	0.017620862
73	0xbd8cd854	-0.06877199
74	0xbd9f42a5	-0.07776383
75	0xbea50575	-0.32230726
76	0x3d88211b	0.06646939
77	0x3da9a149	0.08282716
78	0x3d413844	0.0471728
79	0xbabae6fa	-0.001425951
80	0xbd9173ab	-0.0710214
81	0x3e048ed4	0.1294511
82	0x3dc108fc	0.09425542
83	0x3cc63a1b	0.024197629
84	0x3db90e9c	0.0903599
85	0xbe4c1c99	-0.19932784
86	0xbe0c3538	-0.13692176
87	0xbbd19613	-0.006396064
88	0x3e0b5cd7	0.13609634
89	0xbe072219	-0.13196601
90	0x3e31584a	0.17318836
91	0x3dbc6899	0.09199638
92	0x3c34f243	0.011044088
93	0x3e96ce7e	0.29454416
94	0xbe5fbe1e	-0.21849868
95	0x3e0c9d49	0.13731875
96	0xbd18c0cb	-0.037293237
97	0x3e866f75	0.2625691
98	0xbdb473e0	-0.08811164
99	0xbe6114dc	-0.21980613
100	0x3e19246f	0.14955305
101	0xbc3c3aa6	-0.011488592
102	0x3dcb4cd4	0.09926763
103	0xbd09cae7	-0.03364077
104	0x3c1c7d2f	0.0095513305
105	0x3e0fac89	0.1403066
106	0xbeae1bfa	-0.3400572
107	0xbe18e35a	-0.14930478
108	0x3d87fc2d	0.066398956
109	0xbf33aece	-0.70188606
110	0xbd6b32fd	-0.057421673
111	0xbadcd419	-0.0016847878
112	0xbe1bbb5b	-0.15208189
113	0x3c49a2f3	0.0123069165
114	0xbf13d714	-0.5775006
115	0xbd2250ea	-0.039627947
116	0x3e52a0b1	0.20569111
117	0xbdd69871	-0.10478295
118	0x3d56bdcb	0.052427094
119	0x3d8b6f67	0.06808358
120	0xbe1f9663	-0.15584712
121	0x3d14430d	0.036196757
122	0x3de485cb	0.111583315
123	0x3c8075e0	0.015681207
124	0x3c46a564	0.012124393
125	0x3e18a430	0.14906383
126	0x3e150b5d	0.14555116
127	0x3d5c8569	0.053838167
128	0xbdbf6d37	-0.09347003
129	0xbea129c6	-0.31477183
130	0xbc3679e7	-0.011137462
131	0x3e5b40ba	0.2141141
132	0x3efa151f	0.4884424
133	0x3daf73fa	0.08567043
134	0xbe1ef002	-0.15521243
135	0xbe14df87	-0.14538394
136	0x3c9d9957	0.019238157
137	0x3e13860b	0.14406602
138	0x3dc3843b	0.09546705
139	0xbf0b676f	-0.544547
140	0xbe53dc8c	-0.206896
141	0x3e8e0c8e	0.27743953
142	0xbe034842	-0.12820533
143	0xbe6a7296	-0.22895274
144	0x3dde96e7	0.10868626
145	0xbdf65fa1	-0.120299585
146	0x3d9746ca	0.07386549
147	0xbcfbe3ed	-0.030748332
148	0xbe5030be	-0.20331094
149	0x3e5103bf	0.20411585
150	0xbd36f03a	-0.04466269
151	0x3e6ece7d	0.23320957
152	0x3d986257	0.07440632
153	0x3e43ca80	0.19120216
154	0xbe46dfee	-0.1942136
155	0x3deff30c	0.117162794
156	0xbcaac169	-0.020844178
157	0x3dfd1524	0.12357548
158	0xbefae942	-0.49006087
159	0xbe173ece	-0.14770052
160	0x3e7c0fad	0.24615355
161	0x3d264dc1	0.040601496
162	0x3d76fd5e	0.060300224
163	0xbe5cc5d7	-0.21559845
164	0x3da89785	0.08232025
165	0x3e392a8d	0.18082638
166	0x3ccd3c90	0.025053293
167	0xbddd627a	-0.108097985
168	0x3c02a59e	0.0079740565
169	0xbd60599a	-0.05477295
170	0x3e8cf937	0.27533886
171	0xbd7fdcfc	-0.062466606
172	0x3e832190	0.25611544
173	0x3e6c88ed	0.23099108
174	0xbd9338ef	-0.071885936
175	0x3b8b1eda	0.004245621
176	0xbddec788	-0.10877901
177	0x3d8aa499	0.06769676
178	0xbe814787	-0.25249884
179	0xbd20512d	-0.039139915
180	0xbcde3f6c	-0.027129851
181	0xbdfdc93b	-0.12391897
182	0x3d93da43	0.072193645
183	0xbd3aeea8	-0.045637757
184	0xbe39c9e1	-0.18143417
185	0xbd175dce	-0.036954693
186	0xbcf1b638	-0.029505834
187	0x3e8ead62	0.27866656
188	0xbd573e5e	-0.052549712
189	0xbc99ab44	-0.018758424
190	0xbec82b94	-0.39095747
191	0xbe1b105c	-0.1514296
192	0x3d382ece	0.04496651
193	0xbda3ade7	-0.079921536
194	0xbb3f9c8d	-0.0029237599
195	0xbdf58d2b	-0.11989816
196	0xbe84c6df	-0.25932977
197	0xbddf2f55	-0.108977
198	0x3d944dce	0.072414026
199	0xbe374a81	-0.17899515
200	0x3c53be38	0.01292377
201	0x3c0a6667	0.008447266
202	0xbe72a92c	-0.23697346
203	0xbe36ebb0	-0.17863345
204	0xbb0747a0	-0.0020642057
205	0x3e0e2222	0.13880208
206	0xbe0aabb0	-0.13542056
207	0x3dd0c85d	0.10194466
208	0xbd34fa71	-0.044184152
209	0x3dbefac8	0.093251765
210	0x3d8bae1a	0.068203166
211	0xbdaf3bac	-0.085563034
212	0xbd9a2f75	-0.07528583
213	0xbe089afd	-0.13340373
214	0xbe20d8ce	-0.15707704
215	0xbd1357e6	-0.0359725
216	0xbe7c9685	-0.24666794
217	0x3d1618f8	0.036644906
218	0x3deca853	0.11555543
219	0x3e7d4ea9	0.24737038
220	0xbf30a0c2	-0.68995297
221	0xbdee7530	-0.116434455
222	0x3e4d126f	0.20026563
223	0xbe0c25ae	-0.13686249
224	0x3e0a4e5c	0.13506454
225	0x3e612f94	0.21990806
226	0x3da71b5b	0.081595145
227	0xbe243421	-0.1603551
228	0x3e3e34ae	0.18574783
229	0x3e97c324	0.29641068
230	0xbe0595c9	-0.1304542
231	0x3e40e5af	0.18837617
232	0xbdb3e91e	-0.08784698
233	0x3db9919a	0.090609744
234	0xbde343fc	-0.11096951
235	0xbda7dfa8	-0.08196956
236	0xbe338ee2	-0.17534974
237	0xbf7fd57b	-0.9993512
238	0xbdd86f3c	-0.10568091
239	0x3e84fa64	0.25972283
240	0xbe7eabc7	-0.24870215
241	0x3e0c499b	0.13699953
242	0xbf43a418	-0.7642226
243	0x3e0c7c29	0.13719238
244	0xbc0b07be	-0.008485733
245	0xbdf374bd	-0.118875004
246	0xbc97afd0	-0.018516451
247	0x3d752e46	0.059858583
248	0xbe835a42	-0.256548
249	0xbd9fc989	-0.07802112
250	0x3e27e162	0.1639457
251	0x3e0f7b09	0.14011778
252	0xbcdc4344	-0.026887543
253	0x3e3d4b48	0.18485749
254	0xbcef2071	-0.029190274
255	0x3d4c9078	0.049942464

fc2.bias f4 [128]
0	0x3e64fa44	0.22361094
1	0x3d31aa9f	0.043375608
2	0x3dd6dddf	0.10491537
3	0x3e86bef5	0.26317564
4	0x3e2b954d	0.16756172
5	0xbdec077f	-0.11524867
6	0xbe03637d	-0.1283092
7	0x3dd928aa	0.10603459
8	0x3cb192bc	0.021676414
9	0x3d2b0149	0.041749272
10	0x3de4f2aa	0.11179097
11	0x3ec98cb7	0.3936517
12	0x3e89978c	0.26873434
13	0x3cb3e454	0.021959461
14	0x3c99c8ea	0.018772561
15	0x3e754e17	0.2395557
16	0x3e288a3d	0.16458984
17	0x3e930152	0.28711945
18	0x3e3e3c43	0.18577676
19	0x3e25f91b	0.16208307
20	0x3e4a2550	0.19740796
21	0x3e6a2b3a	0.22868052
22	0x3b7752f5	0.0037738655
23	0x3e5591ec	0.20856446
24	0x3d352c4b	0.044231694
25	0x3ec7d5f7	0.3903043
26	0x3c38d879	0.01128208
27	0xbd98bbba	-0.07457681
28	0x3e175774	0.14779454
29	0xbe1a3a4c	-0.15061301
30	0xbe5474f3	-0.20747738
31	0xbd1ab3d3	-0.03776915
32	0x3be7835f	0.007065221
33	0xbe418228	-0.18897307
34	0xbdf937c9	-0.12168843
35	0x3edf1f86	0.43578738
36	0xbc902379	-0.01759504
37	0x3e13e0c0	0.14441204
38	0x3e931845	0.28729454
39	0xbd0bfffa	-0.034179665
40	0xbba807f9	-0.0051279035
41	0x3e25d052	0.16192749
42	0x3e7fdfea	0.2498776
43	0x3eb05fec	0.34448183
44	0x3cbcc188	0.023041502
45	0x3eaff482	0.34366232
46	0x3d6562b4	0.056002334
47	0xbdf931f1	-0.12167729
48	0x3d87fa0b	0.06639489
49	0x3e43ee9d	0.19133992
50	0x3d1421b4	0.036164954
51	0xbdbc7627	-0.09202223
52	0x3e65041d	0.2236485
53	0x3e6b3df6	0.22972855
54	0xbddb6561	-0.10712696
55	0x3dd3aa3a	0.103352025
56	0xbe1c2d62	-0.15251687
57	0x3e98cac8	0.2984221
58	0x3e8bbd59	0.27292898
59	0xbe0789f8	-0.13236225
60	0xbe2398ca	-0.15976253
61	0xbdb0b4d0	-0.08628237
62	0x3eb758e6	0.35810012
63	0xbd99e319	-0.075140186
64	0x3c5fec2f	0.01366715
65	0xbd4ed88f	-0.050499495
66	0x3d9dcd9d	0.07705233
67	0xbd4c8f4a	-0.04994134
68	0x3e8bf28e	0.27333492
69	0xbe5cf5b7	-0.21578108
70	0x3e822395	0.25417772
71	0xbdd737a1	-0.10508657
72	0x3e6bdcf3	0.23033504
73	0x3e4df9d7	0.20114838
74	0xbc9086b3	-0.017642355
75	0xbe2fa844	-0.17154032
76	0xbd923bd1	-0.07140315
77	0xbc6d129c	-0.014469769
78	0x3e4e8a95	0.20170052
79	0xbc752482	-0.014962317
80	0xbd316ec5	-0.04331853
81	0xbe752102	-0.23938373
82	0x3e4254c8	0.18977654
83	0xbe76a297	-0.2408546
84	0x3e195626	0.1497427
85	0x3edfc0fc	0.43701923
86	0xbe46516c	-0.19366997
87	0x3eb825ad	0.35966244
88	0xbd821b2a	-0.063528374
89	0xbdb40f51	-0.08791984
90	0x3e0c5eb4	0.13708001
91	0x3e849310	0.2589345
92	0xbcf79aba	-0.030225147
93	0xbd861802	-0.06547548
94	0xbdcbce43	-0.09951451
95	0x3c93ca61	0.018040838
96	0xbe1b3b1e	-0.1515927
97	0xbd811944	-0.06303647
98	0x3d8a5a55	0.06755511
99	0x3e956ba0	0.29183674
100	0x3e090faa	0.13384882
101	0xbe8df5eb	-0.27726683
102	0x3ea4c9a1	0.3218508
103	0xbdab05ea	-0.083507374
104	0xbe03e086	-0.12878618
105	0x3d6c0913	0.05762584
106	0x3d7b673b	0.061377745
107	0x3cde5513	0.027140176
108	0xbe625c9e	-0.22105643
109	0xbd2e31d1	-0.042527977
110	0x3d103c7c	0.035213932
111	0x3dab93ac	0.083777755
112	0x3ec559d2	0.3854509
113	0x3e1667ec	0.1468808
114	0x3e12df50	0.14343
115	0xbd04fc59	-0.03246722
116	0xbdb7270f	-0.08942997
117	0xbdcad35c	-0.09903595
118	0xbd8242f7	-0.06360429
119	0x3e2de55f	0.1698203
120	0xbe279684	-0.16366011
121	0xbd353f40	-0.044249773
122	0xbe76a50f	-0.24086402
123	0xbe977db9	-0.29588106
124	0xbe96ac81	-0.29428485
125	0xbe2a63c8	-0.16639626
126	0xbdf6a77b	-0.12043663
127	0xbced272c	-0.028949343

fc3.weight f4 [6, 128]
0	0x3cbe60cc	0.023239516
1	0x3e318813	0.17337064
2	0x3e184a9b	0.1487221
3	0x3f09e8fe	0.5387114
4	0x3f05e882	0.52307904
5	0xbdf4cc96	-0.11953084
6	0x3b1db16c	0.002406205
7	0xbf5f466f	-0.8721685
8	0x3d618b0d	0.05506425
9	0xbd78d6c4	-0.06075169
10	0xba34778e	-0.000688427
11	0x3e7fea96	0.24991831
12	0x3e689234	0.22712022
13	0x3cb6886f	0.022281853
14	0x3f1d3206	0.61404455
15	0x3e1800cf	0.14844058
16	0x3de6be6f	0.11266791
17	0x3e27a522	0.16371587
18	0x3e9e69ee	0.30940193
19	0x3e218770	0.15774322
20	0x3db3500c	0.08755502
21	0x3d7898fc	0.060692772
22	0x3c2bb54d	0.010480237
23	0x3ea00725	0.3125545
24	0x3dcf15db	0.101115905
25	0x3dd9107b	0.105988465
26	0xbf27ac8e	-0.6549767
27	0xbf23be88	-0.639626
28	0x3ef1c99c	0.47224128
29	0x3d4ee7df	0.0505141
30	0xbead14bc	-0.33804882
31	0xbef4cbe8	-0.47811818
32	0xbec12043	-0.37719926
33	0xbf4857dc	-0.7825906
34	0xbc4a89d4	-0.012361962
35	0x3d8a5375	0.067541994
36	0xbd43c528	-0.047795445
37	0x3deaf1ae	0.11471878
38	0x3da6b484	0.081398994
39	0xbe218594	-0.15773612
40	0x3e0bb2e8	0.13642466
41	0x3f45cbb4	0.7726395
42	0x3da06b3a	0.07832952
43	0x3d2a2b7b	0.041545372
44	0xbca061b5	-0.01957784
45	0x3e782c28	0.24235594
46	0x3c3edbaf	0.011649056
47	0xbf08660b	-0.53280705
48	0x3e5e3433	0.216996
49	0x3e8156a2	0.25261408
50	0xbe1bc1dc	-0.1521067
51	0xbbe98e4f	-0.00712756
52	0x3e2e7b7c	0.17039293
53	0x3e2bd4e5	0.16780432
54	0xbef29086	-0.47375888
55	0x3e9a83ca	0.30178672
56	0xbf56fddd	-0.83981115
57	0x3d4b48ad	0.049629856
58	0x3e9ec73e	0.31011385
59	0xbe200fa1	-0.15630962
60	0xbe7c13ea	-0.24616972
61	0xbd0f04c3	-0.03491665
62	0x3ece40d8	0.40283847
63	0xbd44d6c5	-0.048056383
64	0x3e244ff0	0.16046119
65	0x3ddcf785	0.10789398
66	0xbf239694	-0.6390164
67	0x3d8165c6	0.0631824
68	0x3e36253c	0.17787641
69	0xbdefffa2	-0.1171868
70	0x3ef51bcb	0.47872767
71	0x3d9afba6	0.075675294
72	0x3e0143ad	0.12623473
73	0x3e1bebe5	0.15226705
74	0xbb91115e	-0.004427119
75	0xbe9eaeb9	-0.30992678
76	0xbd289cd2	-0.04116518
77	0xbeca4dff	-0.3951263
78	0x3ed7e719	0.421685
79	0xbd249aaf	-0.04018658
80	0x3e17fdab	0.1484286
81	0xbcad390d	-0.021145368
82	0x3e8527c9	0.26006916
83	0xbed81782	-0.42205435
84	0x3e686392	0.22694233
85	0x3eb13d6d	0.34617177
86	0xbddcc302	-0.10779382
87	0x3d493caf	0.049130138
88	0xbcfd5bb5	-0.030927518
89	0x3d92b3c9	0.071631975
90	0x3d0f8a28	0.035043865
91	0x3e9de02b	0.3083509
92	0x3d64860c	0.0557919
93	0xbd4e2452	-0.050327606
94	0xbfc0a4d6	-1.5050304
95	0xbe8295b7	-0.25504848
96	0x3ca29d6b	0.019850453
97	0x3e805b4e	0.2506966
98	0x3f42b7ed	0.760619
99	0x3de9d913	0.11418357
100	0x3f1b010f	0.6054849
101	0xbd16ee9a	-0.036848642
102	0x3d99874d	0.0749651
103	0xbeb4a0c2	-0.35278898
104	0xbf025124	-0.5090506
105	0x3e8632ff	0.26210782
106	0x3db23a17	0.08702486
107	0x3d785716	0.060629927
108	0xbf18f97f	-0.597557
109	0xbf1cf6d8	-0.61314154
110	0x3df35efc	0.11883351
111	0xbf18a61e	-0.59628475
112	0x3e127362	0.14301828
113	0x3d9b0e56	0.07571094
114	0xbc8760a6	-0.016525578
115	0x3ef6ce14	0.482041
116	0xbc810024	-0.015747137
117	0x3c900da4	0.01758463
118	0xbd76447f	-0.060123917
119	0xbf7e1dee	-0.9926442
120	0x3d05566e	0.03255313
121	0x3bfe81fb	0.0077669597
122	0xbf1c7100	-0.61109924
123	0xbe130e08	-0.14360821
124	0xbe664d6b	-0.2249047
125	0xbf310137	-0.6914248
126	0x3c7821b7	0.015144757
127	0x3df40032	0.119141
128	0x3d6a1709	0.057150874
129	0x3e95584a	0.29168922
130	0xbeab06a5	-0.33403507
131	0xbec15fe8	-0.37768483
132	0xbee87e8c	-0.45409048
133	0x3e04a6e2	0.12954286
134	0x3e1b1e04	0.15148169
135	0x3de7799a	0.113024905
136	0xbd2b8e33	-0.04188366
137	0xbebd825f	-0.37013528
138	0x3d9fe824	0.07807949
139	0xbe80ec21	-0.25180152
140	0x3d55f3b1	0.052234355
141	0x3d7aa32c	0.06119077
142	0xbf54556b	-0.8294284
143	0xbe8faf8c	-0.2806362
144	0x3db2a0d8	0.08722085
145	0xbee6515e	-0.44983953
146	0xbf03ff3f	-0.5156135
147	0xbf13b797	-0.5770201
148	0xbd369da5	-0.044583935
149	0x3de799c7	0.113086276
150	0xbc925096	-0.017860692
151	0xbf71e2ef	-0.944869
152	0x3d83fd78	0.0644483
153	0x3e055eea	0.13024488
154	0x3f5c51fc	0.860626
155	0x3e5f4506	0.21803674
156	0xbecf770d	-0.40520516
157	0x3eef3e53	0.46727237
158	0x3e71e583	0.23622708
159	0x3e0bcb73	0.13651828
160	0x3e942503	0.28934488
161	0xbf1a2d44	-0.6022532
162	0xbd71e267	-0.059053805
163	0x3d358e0c	0.04432492
164	0x3e3dc578	0.1853236
165	0x3e840d87	0.2579157
166	0x3d0be540	0.034154177
167	0x3e54a74f	0.20766948
168	0x3e2282af	0.15870164
169	0xbd7a3299	-0.06108341
170	0x3d088fde	0.033340327
171	0x3e02bf52	0.12768295
172	0xbb2de75c	-0.0026535606
173	0xbef98c7d	-0.48739997
174	0xbd5fe5b3	-0.054662418
175	0xbca64965	-0.02029867
176	0xbf10e19f	-0.5659427
177	0x3e10909c	0.14117664
178	0x3c813497	0.015772147
179	0x3d900730	0.07032621
180	0x3e49a080	0.19690132
181	0x3e4aaf6c	0.1979348
182	0x3e858a53	0.26082096
183	0x3df0a7c2	0.11750747
184	0x3e04e484	0.12977797
185	0x3e9eab63	0.30990133
186	0xbf3e61c0	-0.74367905
187	0x3ee3f109	0.44519833
188	0x3ec43627	0.38322565
189	0x3ca4a7c3	0.020099526
190	0x3e9eadcf	0.3099198
191	0x3e4e17ee	0.20126316
192	0x3f1019f8	0.56289625
193	0x3ebb59b7	0.36591884
194	0x3f324cb7	0.6964831
195	0xbdb6e7c4	-0.089309245
196	0xbeb8e3d8	-0.3611133
197	0x3e965e0d	0.2936863
198	0xbf171a21	-0.59024245
199	0x3e2454e6	0.16048011
200	0xbe64d576	-0.22347054
201	0xbea00ce6	-0.3125984
202	0x3e73e75d	0.23818727
203	0x3e001789	0.12508978
204	0x3ea6b25a	0.32557946
205	0xbe8fe6bb	-0.2810572
206	0xbebe8bc8	-0.3721602
207	0xbd5f0d02	-0.054455765
208	0xbf0289a1	-0.50991255
209	0x3e058bae	0.13041565
210	0xbb07969d	-0.0020689138
211	0x3ef254f3	0.47330436
212	0xbcebdc58	-0.028791592
213	0x3ddd40a5	0.108033456
214	0x3e13f2e4	0.14448124
215	0x3dd02b5b	0.101645194
216	0xbd320160	-0.043458343
217	0xbc92f4c3	-0.017938977
218	0x3e88265e	0.26591772
219	0xbf41e01a	-0.75732577
220	0x3d7bc999	0.061471555
221	0x3be57a3c	0.007003097
222	0xbe883f7d	-0.26610938
223	0x3f071bab	0.5277659
224	0xbf188c9e	-0.59589565
225	0xbc2c23d1	-0.010506586
226	0xbe0e5a61	-0.13901664
227	0x3e17710d	0.14789219
228	0xbef61a77	-0.48067066
229	0x3d58787c	0.052849278
230	0x3dd079e3	0.10179498
231	0x3e15a8f3	0.1461523
232	0x3e3a6077	0.18200861
233	0xbf2686f3	-0.65049666
234	0xbd0fadf7	-0.035078015
235	0x3cc9b201	0.024621012
236	0xbbc40ceb	-0.0059829853
237	0xbf52f534	-0.824054
238	0xbefbcd69	-0.49180153
239	0x3f2050c1	0.6262322
240	0xbe0645b7	-0.13112532
241	0x3dd56343	0.10419323
242	0x3e3defa8	0.18548453
243	0xbf7850ea	-0.96998465
244	0x3cfa0a5b	0.030522516
245	0xbdc05438	-0.093910635
246	0xbcfe4f0c	-0.031043552
247	0xbfc6c35f	-1.5528373
248	0x3eb3ef50	0.35143518
249	0x3f46f4a3	0.77717036
250	0x3f026421	0.50934035
251	0xbf024cd3	-0.50898474
252	0x3e56ff28	0.20995772
253	0xbf0c9a8d	-0.54923326
254	0x3db0cf06	0.086332366
255	0x3e40e9e9	0.1883923

fc3.bias f4 [6]
0	0x3e062463	0.13099818
1	0xbd2cacff	-0.04215717
2	0xbdd13fa4	-0.102172166
3	0xbdd81e94	-0.10552707
4	0xbca8885f	-0.02057284
5	0xbe0716fc	-0.13192362
